mnist_model.tflite (tflite, 141936 bytes, 6 tensors)

dense/bias f4 [10]
00000000: c688 b83c 9be8 2e3e 7e5c 1cbd c5d2 b1bc
00000010: e4d3 a8bd 072d 58bc 2d41 1ebd 31ad 023c
00000020: c9b7 e1bb 49d1 01bb
0.022526156 0.1708092 -0.038174145 -0.021706948 -0.0824354 -0.013194329 -0.038636375 0.007975862
-0.006888364 -0.0019808582

conv2d_1/bias f4 [64]
00000000: 7ea2 1cbd 5d3b 5abd 7c2b 613d 0fcb 90bd
00000010: e15e fdbc bbea e1bd 3eda c5bd 3c55 08bb
00000020: 4738 82bd c4f6 1bbc 161d 50bd 7973 4f3b
00000030: 1fdd 693b 55a4 dcbd 5495 88bd 8efd c6bd
00000040: eab1 b2bd 5b72 3bbd 7697 f83c 5851 93bb
00000050: adc0 683d b42f 62bd f095 dcbc 3e21 4cbe
00000060: c75a be3b 086a b9bd ad41 71bd 48ac 573c
00000070: 1b68 523d c85f 8fbc 0c08 a3bc 3ebd db3a
00000080: 4668 6bbd c2ee eb3c d0ee c5bd 2207 26bd
00000090: 7c06 093d b78b 3ebd 5db6 dabd 5a48 5b3c
000000a0: 816d c0bd 1903 82bd a4c8 07bd 7dc2 79bd
000000b0: 1b94 e43c 7769 97bc ad8b 22be 95af b6bd
000000c0: b449 12bd c2cf 1abd 12ad e7bd 433c b2bd
000000d0: d290 8abd 9277 33bd 0c61 f2bd 091f 0cbe
000000e0: e49f dcbb b2ff 61bc eca5 47bd a0b6 9bbd
000000f0: b3d9 f2bc 6cbd 86bc 74bb 35bd 2340 67be
-0.038240902 -0.05327927 0.05497311 -0.0706998 -0.03092903 -0.110310994 -0.09660767 -0.0020802757
-0.0635839 -0.009519283 -0.05080899 0.003165452 0.0035684777 -0.10773531 -0.06669107 -0.097163305
-0.08725341 -0.045763355 0.03034566 -0.004495781 0.056824375 -0.055221274 -0.026926965 -0.19934556
0.0058091613 -0.09053427 -0.058900524 0.013163634 0.051368814 -0.017501727 -0.019901298 0.0016764773
-0.05747249 0.028800372 -0.096646905 -0.040534146 0.03345345 -0.04651996 -0.10679314 0.013383949
-0.09395886 -0.06348247 -0.03315033 -0.060976494 0.027902653 -0.018482907 -0.15873595 -0.08920208
-0.03571482 -0.03779579 -0.113123074 -0.087029 -0.067659035 -0.043815203 -0.118349165 -0.13683714
-0.0067329276 -0.013793873 -0.04874222 -0.07603192 -0.029644823 -0.016447745 -0.044368222 -0.2258306

conv2d/bias f4 [32]
00000000: 0e2b 92bd f4d0 ee3c 26df 69bd 75d5 3abc
00000010: 901a 62bd 73c6 24be a294 10bc db89 a9bc
00000020: 5d4d 5cbd 9c9b 1bbd 8f45 6fbd b2be 2bbe
00000030: f09c 83bb c024 10bd 5a5d 1cbc aa56 ff3d
00000040: 599a b7bd 9182 c8bd 2838 c9bd ed29 37bd
00000050: 6f73 dcbc ceff 933d 4f01 e6bc 8047 c8b8
00000060: 8368 b2bd 581c 113e 1180 93bc f647 41bd
00000070: 9bad 2b3c f0ce 4e3d ad30 7ebb 1a1f 58bd
-0.07137118 0.029152371 -0.057097577 -0.011403431 -0.055201113 -0.16091327 -0.008824499 -0.020695617
-0.053784717 -0.037990198 -0.058415946 -0.16771963 -0.004016511 -0.035191298 -0.009543741 0.12467702
-0.08964986 -0.097905286 -0.09825164 -0.044717718 -0.026910512 0.07226525 -0.028076796 -9.550061e-05
-0.0871134 0.14170969 -0.018005403 -0.047187768 0.0104784025 0.05049032 -0.0038786337 -0.052764036

sequential/dense/MatMul f4 [10, 1600]
00000000: 9222 0abe 6b7a b4bd 9f45 34be 3d12 04bc
00000010: 9b90 30bd 646e 4fbd 495b 893d b40e 6cbd
00000020: 1544 303c 7ffb 073d 0aac d83c f051 e73c
00000030: ff35 b13d f283 44bd 4b24 57bc 5525 9d3c
00000040: 7751 36bd 5ab8 88bd 8f75 48bd 5d55 21bd
00000050: 0e46 67bd 9098 b7bd 8677 f2bc 2330 7bbd
00000060: e272 b3bc 0a43 d6bd df1d 913b 07ae 1fbd
00000070: e842 3e3d 566a dcbd f5f3 a43d 9ffe 053d
00000080: 643f a0bc 24bd 213b 2edf 8bbd 20ca 963c
00000090: 1b94 603d 6e72 bebd 7e7e 69bd 7920 573c
000000a0: 84a8 84bc 4dc1 cbbc 49f6 e9bc 0a36 9f3d
000000b0: ab29 e43c 4b4e d1bd 11fa a93c 5f99 0cbe
000000c0: bf1f 5939 3447 05be ccd0 8f3c 70da c53c
000000d0: 7148 213b 4b7c 05bc a9ed 1dbe 1e6c 02be
000000e0: 7cce bdbd 6f25 e73b 5c00 153d 790c c6bd
000000f0: d307 5c3c 9121 73bc 5989 d4bd 350d e6bc
00000100: 9cb2 67bd 35d1 c7bd 76f8 0cbe 0a81 ccbd
00000110: 95bb 5cbe 2f81 89bd eb8e dbbd 81cc 2ebe
00000120: 9c8f 8cbd 2fb0 cebd d412 84bd 755e d2bd
00000130: a7a2 2bbe 0f9a 66be a7bb 5abc eed5 b8bd
00000140: 7176 f0bc 73e7 6fbe 1ee4 9cbd 7623 cd3c
00000150: a9db b7bd c7af e5bd 70fb dcbd 9553 98bd
00000160: 14ed 96bb 4a59 cdbd 270d 8dbd 0334 6bbd
00000170: f069 bc3c bf9e dabd 015b 9e3c 445e 86bc
00000180: 57c5 24bd 302f 03bb 8580 77bd 7ae7 b3bc
00000190: 67fb 0abd 9ca5 36be d6dd 59bd bd8f c0bc
000001a0: dbcc a5be 39b4 8ebd 44f6 eb3d 0d98 77bd
000001b0: 3a6f c03c 2abc 51bd 43f3 36bd 7a2b 07be
000001c0: 696d 3b3d 000d 203d d87b c3bc 5d1d dbbd
000001d0: 94ab b5bc 1153 cbbd 6211 b8bb 8097 97bd
000001e0: 61a8 8bbd 737a 2cbe 3ed8 08be 3f17 3ebe
000001f0: 7f52 b538 b09b cebd e259 a1be faf2 3ebd
00000200: 22c6 d23d 9990 b4bd a612 07be 587e b1bc
00000210: 28a9 393d 9498 abbd b2a7 903d 8ed4 45bd
00000220: e261 afbc c429 b6bc d75b 80bc 65e6 09bd
00000230: 9af5 62be 75e4 b6bc f5a3 8fbc 19c6 1abd
00000240: d275 96bd aba6 62bd 43fd 3dbc 241d e73c
00000250: d4f2 573c 6341 f23c 0175 20bd 5ff4 483d
00000260: 16c0 b7bb 6962 89bd 3a01 5abd 6cf1 b23c
00000270: 6aa9 0fbc 0625 a1bd 97bf 50bd 667b 983d
00000280: 389b e53b 7c41 b8bc e978 3e3d e16f 99bc
00000290: 4c7c 79bb b1ce 7fbd 6916 05be 45d5 25bd
000002a0: 95bd e4bd 006b 3ebd 9692 eabc 7c22 a63c
000002b0: 96b7 b03d 386e 72bd d7ef 1fbe f0fc 0cbe
000002c0: e43b 7f3c 2232 6bbb c2f7 123d d3c6 c1bc
000002d0: e939 45bd 368b babd 107f 00be 37c8 b5bd
000002e0: db3c 493c ac8f a3bd 3511 2cbd 2458 86bd
000002f0: 910c dd3b 5b04 febd ebdb a2be ae44 38bd
00000300: 2336 143d 03ec a73b 74d3 79be 9e9b 953d
00000310: aac1 173e 9ed7 97bd f661 303c 5cde 0dbe
00000320: d81e 01bd 364d bcbd 26ee 6a3b 4805 b2bd
00000330: f762 81be 31ae 1c3b 854a 03bc 47b0 123c
00000340: 5976 96bd bb81 9bbd 4486 69bd f484 01bc
00000350: c200 d2bd 68e2 e6bc b23e be3d e089 843d
00000360: 34ff 05bb bad3 dfbd fcb5 39bd e1cf 0b3d
00000370: f73e dc3c 548b a93d c226 9fbc 2e58 0e3d
00000380: 0241 e03c 16e3 123d 3871 64bc 23d4 d73c
00000390: 71a5 863d 80c6 273c e5be b8bd 90c9 0f3c
000003a0: 945a e2bd b085 823d 62cc b4bd 4c66 da3c
000003b0: cd72 fabc b14d 22bd e67e 9a3d 3c09 e13d
000003c0: 0acb 95bc e988 41bb 406c 5bbc e38d 4f3d
000003d0: fbf3 043d 8d8c a9bd 8ae8 92bd ca4b d63c
000003e0: c632 c5bc ff94 a3bb c47f 883c 4c2b af3d
000003f0: d57a b33d 74ca e9bc 3a76 04be 39a0 84bc
-0.1348975 -0.08812412 -0.17604683 -0.008060989 -0.043106657 -0.050642386 0.067068644 -0.05763121
0.0107584195 0.03319883 0.026449222 0.028237313 0.08652877 -0.047977395 -0.0131312115 0.01918284
-0.044511285 -0.06675787 -0.048940238 -0.03938805 -0.056463294 -0.08964646 -0.029598009 -0.061325204
-0.021905366 -0.104620054 0.0044286097 -0.038984325 0.046450526 -0.107624695 0.080543436 0.03271353
-0.019561477 0.0024679387 -0.068296775 0.018406928 0.054828744 -0.092991695 -0.057005398 0.013130301
-0.016193636 -0.024872446 -0.02855982 0.07773979 0.0278519 -0.10220011 0.020749124 -0.13730381
0.00020706559 -0.13015443 0.017555617 0.02415201 0.0024609829 -0.0081473095 -0.15422691 -0.12736556
-0.092678994 0.007054023 0.036377296 -0.09670348 0.0134296 -0.014839546 -0.103777595 -0.02808247
-0.05656682 -0.097567 -0.13766655 -0.0998555 -0.21555932 -0.06714093 -0.10720619 -0.170702
-0.06863329 -0.10092198 -0.06448904 -0.102719225 -0.16761266 -0.22519706 -0.013350404 -0.09025179
-0.029353352 -0.23428135 -0.076606974 0.025041323 -0.08977444 -0.112151675 -0.107901454 -0.07437817
-0.0046058986 -0.10026796 -0.06887274 -0.05742265 0.022999734 -0.1067481 0.019330503 -0.016402371
-0.04022726 -0.002001714 -0.0604253 -0.021960963 -0.033931162 -0.17836612 -0.053190075 -0.02350604
-0.32382855 -0.069679685 0.11521581 -0.06044774 0.023490537 -0.051204838 -0.044665586 -0.13200179
0.04575864 0.039074898 -0.023862764 -0.1069896 -0.022176541 -0.09927953 -0.0056173066 -0.07401943
-0.06819225 -0.16843586 -0.1336374 -0.18563555 8.646119e-05 -0.10088289 -0.31513888 -0.04661844
0.10291697 -0.08816642 -0.13190708 -0.02166669 0.045327336 -0.08378711 0.07063235 -0.04829841
-0.021408979 -0.022236712 -0.015668793 -0.033666987 -0.22164002 -0.022325734 -0.017534235 -0.037786577
-0.07346691 -0.05533473 -0.011596027 0.028212138 0.013180453 0.029572194 -0.039174084 0.049061175
-0.005607615 -0.067082234 -0.053223826 0.021843635 -0.008768419 -0.0786839 -0.050963964 0.074454114
0.007007029 -0.022492163 0.046502028 -0.018730106 -0.0038068471 -0.062452976 -0.1299683 -0.040486593
-0.111689724 -0.046488762 -0.02863435 0.020280115 0.08628766 -0.059187144 -0.15618835 -0.13768363
0.015578244 -0.0035888036 0.03588081 -0.023654377 -0.04815093 -0.09108584 -0.1254847 -0.088760786
0.0122825755 -0.079863876 -0.042008597 -0.0655978 0.006745883 -0.124031745 -0.3180841 -0.044987373
0.03618444 0.0051245703 -0.24397069 0.07305072 0.1481997 -0.074141726 0.010765543 -0.13854355
-0.031523556 -0.09194414 0.0035847514 -0.086924136 -0.25270817 0.0023907537 -0.008013372 0.008953161
-0.07346792 -0.075931035 -0.05701281 -0.007905234 -0.10254051 -0.02818413 0.09289302 0.0647161
-0.0020446302 -0.109290555 -0.04533957 0.034133796 0.026885493 0.08278528 -0.01942766 0.034752063
0.027374748 0.035861097 -0.013943009 0.026346272 0.06574524 0.010240197 -0.09020785 0.008776084
-0.11052433 0.06373155 -0.088280454 0.026660107 -0.03057232 -0.039624874 0.07543735 0.109880894
-0.018285293 -0.0029531068 -0.013392508 0.050672423 0.03245924 -0.08278761 -0.071732596 0.026159186
-0.024072062 -0.004992127 0.016662486 0.0855318 0.08763663 -0.02853892 -0.12935725 -0.016189681

sequential/conv2d/Conv2D f4 [32, 3, 3, 1]
00000000: 7c30 f3be cf4b 8bbe 96c4 a63d 595a 19be
00000010: 2f28 b93e f865 593e 8daf 893e cda4 f33d
00000020: 4ca9 d5bd f4cf 323e bbb1 a33e 057d c13e
00000030: c939 5c3e 4d5e c43c 9a77 a3bd 05a3 d2be
00000040: 4d4f cebe d50d 95be ce43 6d3d 6037 50bb
00000050: 156f 153e 064e 16bd a2f6 bcbd 829c 8d3e
00000060: 5261 c6bd 491d a3be cd43 643d bbc9 ba3b
00000070: 95b7 c83e b0eb 683e 950d f3be 9df7 33be
00000080: dad8 933e 5003 66be 2f4d 7abd 22fe 663c
00000090: 2a01 373e 916f d83d 6ef9 33bd a31b b4bd
000000a0: 4ef3 653d 6d3c 883d 4c61 ae3d dc65 5c3d
000000b0: 2be1 813d 42d9 233e a21b cbbd bd41 33bd
000000c0: 98cd fe3c a90a 183e d2aa e0bd d9b6 31bd
000000d0: 6217 693d e428 ef3d 561e 9c3e 24b5 8c3b
000000e0: 46ba fcbe f8d6 923e 9f31 fa3d c172 08bf
000000f0: c1ef 643e 2390 6d3e 8c27 33be b33a 7abd
00000100: a754 3cbc de5f 5d3e 04cf 84be 00bf d9bd
00000110: 7327 983e 5062 93be b321 8ebd cc72 6f3e
00000120: 9dd4 dc3c cd32 78be 6821 e5be a91c cc3d
00000130: 4f90 363e 13d9 053e bbd2 023e 32fd 673c
00000140: 3253 323e 4f6a bbbe d061 b4be 8e3e 253d
00000150: b8f6 05bf e84b c63d 7bcf 893e 4c85 663c
00000160: 4c7e b33e c12e 723e c72c 9abd f701 473e
00000170: 6f6f 603e 7f71 6a3e 0b20 813e 9e14 58be
00000180: bac9 473e cf34 ecbd 5a34 07bf be80 633e
00000190: 58f6 d6bd 1ebe 33be 4ca4 e73c 197e aa3c
000001a0: cd14 6c3d a031 ea3d 814d 5e3d 90ec 8c3d
000001b0: a40d b6be 1563 5dbe 6647 eabd 3ae0 07bd
000001c0: 2aba 08bd b4ff bebd f135 c13e fe24 363e
000001d0: c2a8 8e3e c259 843d d2e7 9e3d 338a afbc
000001e0: 9052 9f3d 6cf2 9ebd de08 f33d 5104 0b3e
000001f0: cdaa 723d 878e 083e 9db2 8839 88a2 69be
00000200: 9fb8 b2bd 8400 a7bd adf5 073e b8e7 1c3e
00000210: d77c 25bd 23d9 6e3e 0d6d 4cbe 0c07 983d
00000220: 06df dd3e 6c2d b73e 33cd 08bf 8400 0dbe
00000230: 12c3 1f3e 087b 83be a467 f1be 8dba d5be
00000240: 15eb 563d 7220 9dbe 8d23 c4be 7f0f 893e
00000250: f448 bd3d 0350 81be 84f5 413e fda2 663e
00000260: 2713 453e c966 49be d585 f33d a775 793d
00000270: 18d9 5c3d 18e4 f53c f8d2 913d 5a78 e63c
00000280: 7269 0b3e 64e4 81be f660 a13d 6e78 77be
00000290: 0110 55be 81cd 493e 8514 553d 55bc 3abd
000002a0: 64ad 8dbd 7258 443e 4796 1d3e 574e 013d
000002b0: 2290 ad3d 0220 da3d 44d5 1a3e c145 483e
000002c0: 1649 56be 8118 f63c 841e 393e 8927 99be
000002d0: 6ed5 d43d 72ca 883d 303a 763e b20e ca3d
000002e0: 3c8f 893e 43d9 5a3e 006d 0cbf 1043 d8be
000002f0: ef7a 343d 178b 153f f974 033f 05c9 0cbe
00000300: 4563 d43e 96fe c5bd b0cd 34bf 518b cdbd
00000310: 053c 0dbf 914f d7be ef9e 1abe b8dd 663d
00000320: 2667 b93d 9f1e d8be 7c84 65bd 25c6 293e
00000330: e6ab 3abe 2974 5c3e ac0f 823e bf29 edbe
00000340: a56c e6bd 018d 0b3e ed28 8dbe dc1f 4cbe
00000350: 9ff9 ac3e adab bdbe ed45 2cbe 7232 ab3e
00000360: 6a2b 8b3b 60d7 683d 6bcf 123d c2e8 c13c
00000370: 548d bf3a 9b28 bbbd b5ae 6d3d 8e81 bbbc
00000380: d4ed 1c3e 4246 3fbe 01b7 e3be 2c64 97be
00000390: 0d93 793e 032f 41be d147 07bf 8f6d 093f
000003a0: 1b00 183e 7b28 19be 86a1 123d 0104 e7bd
000003b0: 0dc1 18be 084c 3cbe 2ff2 a4be e43b 49be
000003c0: ad9b a93e 0171 743e 533b af3e cf5d 8cbd
000003d0: 7ce5 143d f844 f73c 148e 883d 3525 db3d
000003e0: bc94 cd3c 473f d53d ce74 323e cf9f 85be
000003f0: f2ae 973e 8245 2b3e 0220 363e c281 a23d
-0.47497928 -0.27206275 0.081429645 -0.14975871 0.3616347 0.21230304 0.26891747 0.11896668
-0.104326814 0.1746214 0.31971535 0.37790695 0.21506418 0.023970747 -0.079817966 -0.4114
-0.40294877 -0.29112116 0.05792599 -0.0031771287 0.14593156 -0.036695503 -0.09226729 0.27658468
-0.09686531 -0.3185828 0.055728722 0.0057003177 0.39202562 0.22746158 -0.474713 -0.17574926
0.28876382 -0.22462201 -0.061108764 0.014098676 0.17871538 0.105681546 -0.043939047 -0.08794334
0.056140237 0.0665215 0.08514652 0.05380808 0.063417755 0.16000846 -0.0991738 -0.043763865
0.031103894 0.14847817 -0.109700814 -0.043387268 0.056907065 0.11677721 0.30491894 0.0042940546
-0.49360865 0.28679633 0.12216496 -0.533001 0.22357084 0.23199515 -0.17495555 -0.061091136
-0.011494792 0.21618602 -0.2593919 -0.106321335 0.29717597 -0.28785944 -0.06940021 0.23383635
0.02695685 -0.24238129 -0.4475205 0.09966404 0.17828487 0.13071088 0.127757 0.014159488
0.17414549 -0.36604545 -0.35230875 0.04034286 -0.5232959 0.09682447 0.26916108 0.014069866
0.35057294 0.23650648 -0.07528072 0.19434343 0.21917509 0.22894858 0.2521976 -0.21101615
0.19510546 -0.1153351 -0.5281426 0.2221708 -0.10496205 -0.17552993 0.028276585 0.020812081
0.057637025 0.114352465 0.054273132 0.06881058 -0.35557282 -0.21619828 -0.114393994 -0.033172823
-0.033380665 -0.09326115 0.37736467 0.17787549 0.27863127 0.064624324 0.0775906 -0.021428203
0.077794194 -0.07761082 0.11866926 0.13575865 0.05924492 0.1333562 0.0002607302 -0.22815907
-0.0872662 -0.08154395 0.13277312 0.15322769 -0.04040226 0.23325019 -0.19963475 0.07423219
0.43334216 0.35776842 -0.5343811 -0.13769728 0.15601757 -0.25679803 -0.47149384 -0.4174389
0.052470285 -0.30688816 -0.38308373 0.26769635 0.0924243 -0.25256357 0.18941313 0.22523113
0.19245587 -0.19668116 0.11890761 0.060903218 0.053917974 0.03001599 0.07120317 0.02813356
0.13614443 -0.2536956 0.07879822 -0.24167034 -0.20806886 0.197073 0.052021522 -0.045589764
-0.06917837 0.19174364 0.15389358 0.03156885 0.08474757 0.10650636 0.15120417 0.19557859
-0.20926318 0.030040981 0.18078047 -0.29912975 0.10392271 0.066792384 0.24045634 0.09866084
0.26867092 0.21371941 -0.5485382 -0.42238665 0.04406255 0.5841536 0.5135036 -0.13748558
0.41481987 -0.09667699 -0.70626354 -0.10036338 -0.5516971 -0.42052892 -0.15099691 0.05636379
0.09052877 -0.42210862 -0.05603455 0.16579492 -0.18229637 0.21528687 0.25402582 -0.46320912
-0.11251191 0.13628007 -0.27570286 -0.19934028 0.33784196 -0.3704504 -0.1682355 0.33436924
0.0042471187 0.056846023 0.03584234 0.023670558 0.0014614263 -0.09138604 0.05802794 -0.022888925
0.15325099 -0.18679145 -0.44475558 -0.29568613 0.24372502 -0.1886559 -0.5284396 0.536828
0.1484379 -0.14956848 0.035798572 -0.112800606 -0.14917393 -0.18388379 -0.3221602 -0.19651753
0.33126584 0.23871233 0.34224948 -0.0685383 0.036351666 0.030184254 0.06667724 0.10700456
0.025095336 0.1041246 0.1742737 -0.26098487 0.2962566 0.16725734 0.17785648 0.079349056

sequential/conv2d_1/Conv2D f4 [64, 3, 3, 32]
00000000: 26e5 29bd f6c0 b83d ad07 843d 0b7a 893d
00000010: 4b15 a0bc d948 25bd 6ba4 51bc cd70 2fbe
00000020: 8b75 1d3d d84f 5dbc 970b 64bd 7a7f 11bd
00000030: ac02 1e3e e66b 243d f602 3dbd c41f 8f3d
00000040: 2f9c de3d 7d0b b2bc 4060 cf3d bbec 913d
00000050: 0812 5d3e 50d6 5a3d c31c bfbd 2300 69be
00000060: 2415 92bb b29e 0d3e 0f78 233e aa62 c03c
00000070: e560 123e 9818 1ebe 79e0 173d 7c2d 1fbd
00000080: 461b b73d f472 73be f0d7 ca3d b7c7 7b3e
00000090: e3d0 81bc c0c7 5a3a e4fc 903d 742c 223e
000000a0: 047e b13c 48c0 1f3d 9bc4 32bb 0f5c 953d
000000b0: 194a 793d 594f e9bc 5300 ff3d bde7 b0bd
000000c0: 78f4 013e 3b7e adbd 8d01 1c3e 12f6 82bd
000000d0: 9307 de3d 4470 963d 38d3 603d f616 4f39
000000e0: 7bc3 bd3c 42ea 193e 72ab 87bc 1f1c 34bd
000000f0: 61e2 90be cb3b bb3d 1021 2cbc e6b3 dcbc
00000100: 7589 d63a 56c1 a5be b7b4 cd3c fb58 883e
00000110: 8cff bcbc 457e 0f3d 0724 423e df8c 343e
00000120: ed01 15bd d857 f1bb 9bb4 bb3d 3ee3 a23d
00000130: ca93 03be 68b5 b1bc c654 6d3d 68fc fbbe
00000140: c59b bb3d 9300 d93d 0c4d 4b3d 6080 dd3d
00000150: 37f1 42be 5075 8c3d 2c17 533e 6d1c 883e
00000160: 8272 8bbc a507 383d 7b19 25be fcd9 e93d
00000170: c3a9 82be 9bf0 1f3e 66c2 25be 4ae3 e23d
00000180: eb41 683d dd4b fdbd ab3c 9dbd 0a8b 943d
00000190: e338 ac3d 33a4 4cbb 091f 8cbe 7b74 ed3c
000001a0: 6221 dabc f731 923d 2503 eebd 47eb 2d3d
000001b0: 579d 363d a416 2dbd 2def 243d e22f 26be
000001c0: a844 a33d 74ae 8d3d afce ce3d 469a eb3c
000001d0: 60cf 9dbd c788 dfbd e511 c4bc b418 6fbe
000001e0: f045 dabc 881e 7ebe 67ee b33d 14fd 603d
000001f0: ec39 14be 6458 17be 7f33 37bd 5356 dabc
00000200: fc40 1d3e 4c2c 28bd 0084 76bc aa19 94bc
00000210: c0e6 9f3c a609 773c 8fa8 2d3d adec 8b3d
00000220: 4399 88bd e7db ad3d 866d 163d 288d 933d
00000230: 57c4 edbd 8ae2 c7bc 7463 603b cf1b e0be
00000240: ba8a 5dbd a79c 4d3d 6b73 3abc e2e9 fe3d
00000250: 8211 d0bd ca24 2f3e a119 1fbc c541 223d
00000260: d11e 71bb 9346 23be 0cea f3bd 9582 983c
00000270: 1252 79be 71d7 813c 43c1 c5bd 2029 3abd
00000280: 860e 96bc 61a1 86bd cde6 f2bd 549b 75be
00000290: 354b 84bd 5759 f93c 5c94 823d cfd1 7dbb
000002a0: bf1a e8bd 5320 653c e5d9 d93d 78f5 d2bc
000002b0: aa59 86be c543 243b 8b95 b2bd abc4 acbe
000002c0: d98a 0d3a 32d4 cb3c 01f3 14bd 2faa 953d
000002d0: 33d0 51be ced8 4e3e ea1b 653d ce88 973d
000002e0: 92ad d53c eedf e2bd 98d6 7abe 29c9 433a
000002f0: c7f3 dbbd 6211 713d 794b 5abe 47de 53bd
00000300: 32c2 903e e9c0 dd3d a91e 013c 1895 c1be
00000310: 90fe 99bc 56c6 943d d010 f1bd c3f1 5cbe
00000320: a645 633b a9ac d83d 4597 1f3e 1160 b83d
00000330: 9a2e d83d 74a8 8d3d 6bcd 343e 1853 8dbe
00000340: 292a 02be 4905 c83d 670c f5bc 7175 063e
00000350: 3ff3 cbbd 96de 133e 4d5d 28be b629 82be
00000360: dd0d da3d 4db5 90be 7dd7 f33d 03ff 6f3d
00000370: 25ea a0bc 5ccc aebe 4210 563d 057a e33d
00000380: a788 17be 39b7 2cbd 250a c13d d7ba 07be
00000390: fff7 a43d 219c a1bd a58e e6bc 26f7 2abe
000003a0: 0f38 0fbe 6d85 16bc d5ef 613d 5fa9 cc3c
000003b0: b0c8 90bd d353 6d3d a67d f5bd de54 6dbe
000003c0: d641 d9bd 3b3e 253d f4d6 dbbd 2d33 e3bc
000003d0: 61d9 ee3b 8c19 0a3e 2986 aebb 7bde cb3c
000003e0: a23a b03d 030b 63be 8522 c0bd cd58 d3bd
000003f0: f403 b13b 21de ccbd b93d 1dbe bca7 2cbd
-0.0414783 0.090211794 0.064467765 0.06712731 -0.019541403 -0.040352676 -0.012795548 -0.17132874
0.038442176 -0.013507806 -0.055675115 -0.03552196 0.15430707 0.040141962 -0.046145402 0.06988481
0.108696334 -0.021733994 0.1012578 0.07125231 0.2158891 0.05342704 -0.09331658 -0.22753958
-0.0044580866 0.13830069 0.15963767 0.023484547 0.14294775 -0.1543907 0.03707931 -0.038861737
0.08940749 -0.2377432 0.09904468 0.24587904 -0.015846675 0.0008345805 0.07079485 0.1583727
0.021666534 0.039001733 -0.002727783 0.072929494 0.06086168 -0.028480219 0.12451234 -0.086379506
0.12690914 -0.08471342 0.15234967 -0.063945904 0.108412884 0.07345632 0.054888934 0.00019749612
0.023164501 0.15030769 -0.016561244 -0.04397213 -0.28297713 0.09142264 -0.01050593 -0.026941251
0.001636787 -0.32374066 0.025110586 0.26630387 -0.023071073 0.03503253 0.18959056 0.17631863
-0.03637879 -0.007365208 0.09165307 0.07953499 -0.12849346 -0.021692947 0.057942174 -0.49216008
0.0916057 0.10595813 0.049634025 0.10815501 -0.19037329 0.06858313 0.20614308 0.26584187
-0.017022375 0.044929165 -0.16123001 0.1141853 -0.25520143 0.15619127 -0.16187438 0.11078508
0.05670349 -0.123679854 -0.07677587 0.07253082 0.08409288 -0.00312258 -0.27367428 0.028986206
-0.026627246 0.07138436 -0.116216935 0.042460706 0.044583645 -0.04225792 0.04026716 -0.16229203
0.079720795 0.0691804 0.100980155 0.028760087 -0.07705569 -0.1091476 -0.023934314 -0.23349267
-0.026644677 -0.24816334 0.08785706 0.054928854 -0.1447522 -0.14779812 -0.044726845 -0.02665249
0.15356821 -0.04105787 -0.01504612 -0.018078644 0.01951921 0.015077984 0.042397078 0.06832252
-0.06669857 0.08489209 0.036725543 0.07204658 -0.116097145 -0.024400014 0.0034238966 -0.43771216
-0.054087378 0.050198223 -0.011380057 0.12446953 -0.10159589 0.17103878 -0.0097107 0.039613504
-0.003679205 -0.1594489 -0.11909875 0.018616954 -0.24347714 0.0158498 -0.09656002 -0.045449376
-0.018317472 -0.06573749 -0.11860428 -0.23985034 -0.06459657 0.030438108 0.063759536 -0.0038729792
-0.113332264 0.0139847575 0.10637263 -0.025751814 -0.26240283 0.0025064808 -0.08719929 -0.33743796
0.0005399413 0.024881456 -0.03636456 0.073078506 -0.20489578 0.20199892 0.055934824 0.0739914
0.026083741 -0.110778674 -0.24495924 0.0007468635 -0.10739856 0.05885447 -0.21317853 -0.051725652
0.2827316 0.1082781 0.007880845 -0.37809062 -0.018798143 0.07264392 -0.11770785 -0.215766
0.0034678965 0.10579807 0.15585048 0.09002698 0.105557635 0.069168955 0.17656486 -0.27602458
-0.12711395 0.09766633 -0.02991314 0.13130738 -0.09958505 0.14440379 -0.16441841 -0.25422448
0.106471755 -0.28263322 0.119063355 0.058592808 -0.019642899 -0.3414029 0.0522616 0.11107258
-0.14798222 -0.042166922 0.09425763 -0.13254867 0.08055114 -0.07891107 -0.02814419 -0.16695842
-0.13986228 -0.009187085 0.055160362 0.024983106 -0.07069528 0.05794127 -0.11986856 -0.23176906
-0.1060826 0.04034255 -0.107343584 -0.027734363 0.007289097 0.13486308 -0.0053260517 0.02488636
0.08604933 -0.2217217 -0.09381584 -0.10319672 0.0054020826 -0.10003305 -0.15355577 -0.04215215
